models/model_best.pt (torch, 794978 bytes, 39 tensors)

head.0.weight f4 [32, 1, 3, 3]
0	0xbeaa2ed4	-0.33238852
1	0x3e39068a	0.180689
2	0xbdb241c6	-0.087039515
3	0x3e18fd1f	0.14940308
4	0x3cbfd329	0.023416119
5	0xbd830a38	-0.063984334
6	0x3d8aaa1f	0.06770729
7	0xbc28665c	-0.010278311
8	0x3dc30d7d	0.09524057
9	0xbe02db67	-0.12779008
10	0xbca51387	-0.020150913
11	0xbcdbe13b	-0.026840797
12	0x3d705507	0.05867484
13	0x3b5d9fde	0.0033817212
14	0x3e98ed7c	0.29868686
15	0x3de7e62a	0.11323197
16	0xbdef606f	-0.11688315
17	0xbe4461b4	-0.19177896
18	0xbd85b73f	-0.06529092
19	0xbe1c0534	-0.1523636
20	0xbdeea320	-0.116522074
21	0x3c03723e	0.008022843
22	0x3e4671a1	0.19379283
23	0x3e327bbf	0.17430018
24	0xbeab1412	-0.3341375
25	0x3e4d13ee	0.20027134
26	0x3db02b4a	0.08602007
27	0x3ea09c83	0.3136941
28	0x3e60be83	0.21947674
29	0xbe9c3c2b	-0.30514655
30	0xbea4049f	-0.32034776
31	0xbe2c9b3b	-0.1685609
32	0x3e98bddc	0.2983235
33	0xbd3a8f38	-0.04554674
34	0x3e1b0b1a	0.15140954
35	0xbe182560	-0.14858007
36	0x3e981e4e	0.2971062
37	0xbe32f8fe	-0.17477795
38	0x3e5640db	0.20923178
39	0xbc1236ab	-0.008924167
40	0xbe47213a	-0.19446269
41	0x3e1aef95	0.15130456
42	0xbe41fb9a	-0.18943635
43	0x3da7f3cc	0.082007974
44	0xbde5ff8d	-0.11230383
45	0xbd068430	-0.032840908
46	0xbea39994	-0.31953108
47	0xbe21fe85	-0.15819748
48	0x3e447c26	0.19187984
49	0xbd929cc7	-0.07158809
50	0x3eae594d	0.34052506
51	0x3e8ac478	0.2710302
52	0xbc577ce3	-0.013152334
53	0xbe651392	-0.22370747
54	0x3e43205c	0.19055313
55	0x3dbd695a	0.0924861
56	0xbe69b70b	-0.22823732
57	0x3e53d283	0.20685773
58	0x3e480f92	0.1953719
59	0x3e9284e2	0.28617007
60	0xbe49c5ea	-0.19704404
61	0xbd826869	-0.06367571
62	0xbc8e3004	-0.01735688
63	0x3d375255	0.044756252
64	0xbe7e4f18	-0.2483486
65	0xbe70600e	-0.23474142
66	0x3e36748b	0.17817895
67	0xbd937aff	-0.07201194
68	0x3e27b0d4	0.16376048
69	0x3c0ebb2d	0.008711618
70	0x3dda85e4	0.10670069
71	0x3d83a627	0.064281754
72	0x3e089b4e	0.13340494
73	0x3e3aeb06	0.18253717
74	0xbe922fda	-0.28552133
75	0x3e36ed91	0.17864062
76	0xbe60d962	-0.21957925
77	0xbe6c7ce9	-0.23094524
78	0x3ce5d82b	0.028057178
79	0xbd2db253	-0.04240639
80	0x3e5c9460	0.21540976
81	0xbe378db2	-0.17925146
82	0xbe97918d	-0.29603234
83	0x3e7c6656	0.24648413
84	0xbd07c686	-0.03314831
85	0x3e49b054	0.1969617
86	0x3dee6d0a	0.11641891
87	0xbe6fcbaa	-0.23417535
88	0x3d91253c	0.0708718
89	0x3db2d0b2	0.08731212
90	0xbe5d7e49	-0.21630205
91	0xbe1bd8fe	-0.15219495
92	0x3dfc3b6b	0.123160206
93	0x3d76e592	0.06027753
94	0xbe1087dc	-0.14114326
95	0xbdc26b53	-0.09493127
96	0x3e9c1b3c	0.30489528
97	0xbd800fb7	-0.06252997
98	0x3e43c0d1	0.19116522
99	0x3e0c7cf6	0.13719544
100	0xbe625a70	-0.22104812
101	0xbe94dfbf	-0.29076955
102	0x3ea17315	0.31533113
103	0x3c78d203	0.015186789
104	0x3e6561ff	0.22400664
105	0x3d819821	0.063278444
106	0x3dd48035	0.10376016
107	0x3e79698e	0.24356672
108	0x3e9a15e2	0.3009482
109	0xbe72be25	-0.23705347
110	0x3cfa39ee	0.030545201
111	0x3e6da707	0.23208247
112	0x3e6882c3	0.22706132
113	0x3e4a0c7a	0.19731322
114	0xbe83a798	-0.257138
115	0xbe846d19	-0.25864485
116	0xbe58ef7f	-0.2118511
117	0x3c9f2b1b	0.019429734
118	0x3ea652b7	0.3248498
119	0xbe72ab4b	-0.23698156
120	0x3e1b4ed5	0.15166791
121	0xbe5b45a9	-0.21413292
122	0xbeb2e991	-0.34943822
123	0xbdc920e9	-0.0982073
124	0x3e336cf9	0.17522039
125	0x3e8e235b	0.2776135
126	0xbe5b165d	-0.2139525
127	0x3d893c5c	0.06700966
128	0x3e8f75fd	0.28019705
129	0x3e5eb8c7	0.21750174
130	0x3e539b2b	0.2066466
131	0x3e6eaedb	0.2330889
132	0x3e538578	0.20656383
133	0x3dab0f76	0.08352558
134	0xbe6e43b1	-0.2326801
135	0xbe8bba56	-0.272906
136	0xbe180b7e	-0.14848134
137	0xbd0a7148	-0.03379944
138	0xbe4c6fa6	-0.19964465
139	0x3dfec561	0.12439991
140	0x3dd9cf90	0.106352925
141	0xbd905184	-0.07046798
142	0x3e064cc8	0.13115227
143	0x3de45920	0.11149812
144	0x3e5c0500	0.21486282
145	0x3e7619a0	0.24033213
146	0xbdf0fbe0	-0.11766791
147	0x3eb49b1e	0.35274595
148	0xbbf8761e	-0.00758244
149	0xbc0c7357	-0.008572421
150	0xbe97592e	-0.29560226
151	0xbe500def	-0.20317815
152	0xbe46e312	-0.19422558
153	0xbe105a66	-0.14096984
154	0x3e69287e	0.22769353
155	0xbdde547e	-0.10855959
156	0xbe8a4249	-0.27003697
157	0x3dd5c5e8	0.10438138
158	0x3dc54107	0.096315436
159	0x3e570256	0.20996985
160	0xbe477bd2	-0.19480827
161	0x3d96a69d	0.07355998
162	0xbde2b440	-0.11069536
163	0xbd8ff81e	-0.070297465
164	0xbe83c6a6	-0.25737494
165	0xbe0fc316	-0.14039263
166	0xbdb8e616	-0.090282604
167	0x3e1ed15a	0.15509549
168	0x3d817e54	0.06322923
169	0x3da5c3b8	0.08093971
170	0x3eabdaba	0.33565313
171	0x3ea264aa	0.31717426
172	0x3e639bee	0.22227451
173	0x3b957de8	0.0045621283
174	0xbe770921	-0.24124576
175	0x3e7f1d69	0.24913563
176	0xbdc4ab3f	-0.09602975
177	0xbd078da6	-0.03309407
178	0xbe976040	-0.2956562
179	0xbd96b4eb	-0.07358726
180	0xbe4f3cdf	-0.20238064
181	0x3ea2a102	0.31763464
182	0xbe8cf2db	-0.27529034
183	0xbe7ffbc5	-0.24998386
184	0xbb457f1a	-0.0030135573
185	0xbe2e762e	-0.1703727
186	0x3e057423	0.13032584
187	0xbdf259f1	-0.11833561
188	0xbe14e397	-0.14539944
189	0x3c45792b	0.0120528145
190	0x3e71e6b3	0.23623161
191	0xbe78cbe3	-0.24296527
192	0x3e1ca153	0.15295915
193	0x3e59c338	0.21265876
194	0x3ea40ae8	0.3203957
195	0xbe73ea6b	-0.23819892
196	0x3d9df779	0.07713217
197	0xbe817d87	-0.25291082
198	0x3e724b13	0.23661451
199	0xbe369858	-0.17831552
200	0x3e197948	0.14987671
201	0xbd1a0f69	-0.037612353
202	0xbd981a46	-0.07426886
203	0xbd718008	-0.05895999
204	0x3c1be6cd	0.009515476
205	0x3ddba324	0.10724476
206	0xba11e15b	-0.00055648916
207	0x3dc1fe51	0.09472335
208	0xbe9c3f57	-0.30517074
209	0x3e727dd9	0.2368082
210	0x3e92120e	0.285294
211	0x3e8bdf4c	0.273188
212	0x3e79257e	0.24330708
213	0xbe7cbc92	-0.24681309
214	0xbe02aafc	-0.12760538
215	0x3e946c14	0.28988707
216	0xbe754f01	-0.23955919
217	0x3ea19802	0.31561285
218	0xbe84d298	-0.2594192
219	0xbe693953	-0.22775774
220	0x3e3032c7	0.1720687
221	0xbe7382ee	-0.23780414
222	0xbd89f4bd	-0.06736133
223	0x3e7f99bd	0.2496099
224	0x3e8710e0	0.26380062
225	0x3e9b6bf3	0.30355796
226	0xbdb7bdd7	-0.08971756
227	0xbe8a6ea6	-0.27037543
228	0x3ea381c1	0.31934932
229	0xbdcba635	-0.09943811
230	0xbe1aca39	-0.15116204
231	0x3d8ae7c7	0.06782489
232	0xbe845c28	-0.2585156
233	0x3e5855a2	0.21126416
234	0x3e6cc695	0.23122628
235	0xbe7b75c1	-0.24556638
236	0xbe82da9f	-0.2555742
237	0xbc173a27	-0.009230173
238	0x3e1fbf1a	0.15600243
239	0x3ba33705	0.004980924
240	0xbe1633f9	-0.14668263
241	0x3cd73e6c	0.026274882
242	0xbe97a772	-0.29619938
243	0xbe70cb06	-0.23514947
244	0xbe768191	-0.24072863
245	0x3e8ae470	0.2712741
246	0x3e9f7e9e	0.3115129
247	0xbe027550	-0.12740064
248	0x3c1ac926	0.009447372
249	0x3e1abb0d	0.15110417
250	0x3cf34d93	0.029700076
251	0xbe34ec6f	-0.17668317
252	0x3e31d515	0.1736644
253	0x3e40bd2f	0.18822168
254	0xbd169202	-0.036760338
255	0xbd6ef255	-0.058336575

head.0.bias f4 [32]
0	0x3e606478	0.21913326
1	0x3deca2f3	0.115545176
2	0x3d717d4b	0.05895738
3	0xbde549c1	-0.11195708
4	0xbd8be767	-0.06831246
5	0x3ce5370a	0.027980346
6	0xbe165455	-0.14680608
7	0xbe142d3f	-0.14470385
8	0xbde03246	-0.10947089
9	0xbdbd6744	-0.09248212
10	0x3d087cd1	0.03332216
11	0xbd39973e	-0.04531025
12	0xbd72bc9b	-0.0592619
13	0xbdc89c58	-0.09795445
14	0xbe86dd12	-0.26340538
15	0x3e7e67b1	0.24844243
16	0x3d33c326	0.04388728
17	0x3e92b46d	0.2865328
18	0xbd4070d8	-0.046982616
19	0xbdeb860b	-0.11500176
20	0xbeb698ac	-0.35663354
21	0xbdac0f6c	-0.08401379
22	0x3e7659e4	0.24057728
23	0xbe917d0c	-0.28415716
24	0xbda82611	-0.082103856
25	0x3e4cb7d4	0.19992
26	0x3e0f9166	0.14020309
27	0x3e060a3e	0.13089845
28	0xbc877299	-0.016534137
29	0xbc9726e2	-0.018451158
30	0xbda780f6	-0.08178894
31	0xbe0bc7b9	-0.13650407

body.0.body.0.weight f4 [32, 32, 3, 3]
0	0x3d064905	0.03278448
1	0xbcc199b5	-0.023632864
2	0xbd64125d	-0.055681575
3	0x3c96711b	0.01836448
4	0xbd6ecb40	-0.058299303
5	0xbc0e9577	-0.008702627
6	0x3d08ed5a	0.03342948
7	0x3b2e8a3f	0.0026632694
8	0x3d3019e7	0.042993452
9	0xbbeab982	-0.0071632275
10	0xbce39c96	-0.027784627
11	0xbd7e7ce0	-0.06213081
12	0xbd5fc040	-0.054626703
13	0x3bf449a1	0.0074550663
14	0x3caec5a0	0.02133447
15	0x3cedc895	0.029026309
16	0xbce2bfd2	-0.027679358
17	0xbccf5e14	-0.025313415
18	0xbd59bef0	-0.053160608
19	0x3d610658	0.05493769
20	0xbc72ce5c	-0.014819708
21	0xbaffcaa3	-0.0019515347
22	0xbc0003f7	-0.007813445
23	0xbcda82bf	-0.026673673
24	0xbd589328	-0.052874714
25	0xbd4f6189	-0.050630126
26	0x3db47c86	0.088128135
27	0xbd2d9261	-0.042375926
28	0xbd5f8736	-0.054572307
29	0x3cc421c3	0.02394188
30	0x3c984e22	0.018591944
31	0x3d967520	0.073465586
32	0x3c9fdedf	0.019515453
33	0x3dc0bd5b	0.09411117
34	0x3cf5eb33	0.030019378
35	0x3d4f13ef	0.05055612
36	0xbd5d5182	-0.05403281
37	0xbd7fcae4	-0.06244935
38	0x3d1a60e0	0.037690043
39	0xbc9029a1	-0.017597975
40	0x3d1be7c0	0.03806281
41	0xbd0c38c0	-0.03423381
42	0xbd721ede	-0.05911147
43	0xbd4309dc	-0.047616825
44	0x38ccbea1	9.7629854e-05
45	0xba17558a	-0.0005772939
46	0xbd8b4b55	-0.06801478
47	0x3b250311	0.002517883
48	0xbb2d2917	-0.0026422197
49	0x3ca2b085	0.019859562
50	0x3cc9c4f5	0.02463005
51	0x3c8facd5	0.017538467
52	0xbc636428	-0.01387886
53	0x3dc5613b	0.09637686
54	0x3cc43efd	0.023955816
55	0x3ab754d3	0.0013987072
56	0xbcccb700	-0.024989605
57	0xbd54d0eb	-0.051957052
58	0x3d3388bf	0.043831583
59	0xbcb5f310	-0.022210628
60	0xbd23a8a1	-0.03995574
61	0x3d1cd12f	0.03828543
62	0x3c74643c	0.014916476
63	0x3c7b8501	0.015351535
64	0xbc5b79e2	-0.013395758
65	0xbd14bdbe	-0.036313765
66	0x3d13c1f8	0.036073655
67	0x3db6bb74	0.089224726
68	0x392ffe29	0.00016783983
69	0xbd062be1	-0.03275669
70	0x3d8d7a93	0.06908145
71	0x3d0857e6	0.03328695
72	0x3d5a20ea	0.053254046
73	0x3d12dd53	0.035855602
74	0x3d73368c	0.05937819
75	0x3d56aaa3	0.052408826
76	0xbd1308f6	-0.035897218
77	0x3d2652a8	0.04060617
78	0xbac60a84	-0.0015109335
79	0xbd02befe	-0.031920426
80	0xbb548b62	-0.0032431711
81	0xbd4f29e1	-0.05057705
82	0xbce23511	-0.027613195
83	0xbd482829	-0.048866425
84	0x3d4ca70a	0.04996399
85	0xbbbe4b44	-0.005807312
86	0xbbec697e	-0.007214724
87	0x3cfb72d4	0.030694403
88	0x3c386538	0.011254601
89	0xbd289e48	-0.041166574
90	0x3d4b6b64	0.049662963
91	0x3d80a9a5	0.06282357
92	0xbd92bc56	-0.071648285
93	0x3d67045a	0.056400634
94	0xbd0c004b	-0.034179967
95	0xbd06f35f	-0.03294694
96	0xbd63c371	-0.05560631
97	0x3d146084	0.036224857
98	0xbd14ff00	-0.036376
99	0x3d27cf4e	0.040969186
100	0xb969366c	-0.00022240885
101	0x3c9693ee	0.018381085
102	0xbc8a393e	-0.016872998
103	0xbd3a2a42	-0.045450456
104	0xbb91340c	-0.0044312533
105	0xbc026b07	-0.007960088
106	0xbbd9e839	-0.0066499976
107	0xbd315e77	-0.04330298
108	0xba98f954	-0.0011670985
109	0x3bcf2dc7	0.0063225958
110	0xbca57470	-0.020197123
111	0xbd5433b3	-0.051807117
112	0x3cf0e3ae	0.029405441
113	0x3bb56a23	0.005536334
114	0x3cf001c4	0.029297717
115	0x3d7cbed7	0.061705437
116	0xbd284576	-0.041081868
117	0x3d37e84d	0.044899274
118	0xbd2cf03c	-0.042221293
119	0x3d27dfc3	0.04098488
120	0x3ca0e95d	0.019642526
121	0x3c038497	0.008027217
122	0xbd254716	-0.040350996
123	0x3d069137	0.03285333
124	0xbd182c1d	-0.037151445
125	0xbd5da2fe	-0.05411052
126	0x3c737210	0.014858738
127	0x3ca496ab	0.020091375
128	0x3d436a44	0.047708765
129	0xbc67e4ef	-0.014153703
130	0x3d5d4cb4	0.054028228
131	0x3cfc2eed	0.030784095
132	0xbcf66fbe	-0.03008258
133	0xbd5e51aa	-0.0542771
134	0x3caf4fa3	0.021400278
135	0xbcc662ec	-0.024217092
136	0x3d027fba	0.03186009
137	0xbd30d389	-0.043170486
138	0x3d4e3ca2	0.050350793
139	0x3cd4a574	0.0259578
140	0x3bd073ad	0.006361446
141	0x3d150e63	0.036390673
142	0xbd3c8c2c	-0.046032116
143	0x398c0bf9	0.000267118
144	0x3c7b6289	0.015343317
145	0xbcd6b02c	-0.026207052
146	0xbca5f6c1	-0.020259263
147	0xbcda5fea	-0.026657064
148	0x3d4b8f6b	0.04969732
149	0x3d5819fc	0.052759156
150	0x3d3e6a9a	0.046488382
151	0x3d7fd873	0.06246228
152	0xbcd3cd16	-0.025854629
153	0x3d088406	0.033329032
154	0x3c638084	0.013885621
155	0xbdb8c3d7	-0.090217285
156	0x3c52c58b	0.012864481
157	0xbd74de86	-0.059782527
158	0x3d1216db	0.035666328
159	0x3d62abf5	0.055339772
160	0x3d8b15c9	0.067912646
161	0xbddefc81	-0.10888005
162	0xbd2dc2c0	-0.042422056
163	0x3d939db1	0.072078116
164	0x3c917322	0.017755095
165	0x3d46901e	0.048477285
166	0x3d0786de	0.033087604
167	0xbcec2fde	-0.028831419
168	0x3d6e1dd3	0.05813391
169	0xbd4eb96d	-0.050469805
170	0xbb142935	-0.002260757
171	0x3c93941c	0.01801496
172	0x3d14fc72	0.036373563
173	0xbcf07335	-0.02935181
174	0xbd444f2c	-0.047927067
175	0xbb036dc2	-0.0020054434
176	0xbd1da045	-0.038482923
177	0xbd60a4b3	-0.05484457
178	0xbcd372d0	-0.025811583
179	0xbd4152e0	-0.047198176
180	0xb9a0478a	-0.0003057088
181	0xbcf62d89	-0.03005101
182	0xbc4bbab3	-0.012434649
183	0xbd4df3c6	-0.05028131
184	0x3d1da13d	0.038483847
185	0x3ba2f9a5	0.0049736076
186	0xbd068995	-0.032846052
187	0x3cc8473a	0.024448026
188	0xbccbf068	-0.024894908
189	0x3d2ab06d	0.04167216
190	0x3ca7950a	0.02045681
191	0xbd85c030	-0.065307975
192	0xbd5e7307	-0.054308917
193	0xbd11dc26	-0.03561034
194	0xbce523a5	-0.027971098
195	0x3c09b615	0.008405228
196	0xbd80b275	-0.06284038
197	0xbcec202f	-0.02882394
198	0x3c4624fd	0.01209378
199	0xbccf3427	-0.025293423
200	0xbccf9de3	-0.025343841
201	0xbd6459ef	-0.05574983
202	0x3ca4ced2	0.02011815
203	0xbc6fe598	-0.014642142
204	0xbcf0fbef	-0.029417006
205	0xbd2e96f0	-0.042624414
206	0xbc23e790	-0.010003939
207	0x3c06a43c	0.008217867
208	0x3cc1ea7f	0.023671387
209	0xbaaab747	-0.0013024592
210	0xbc024d29	-0.007952967
211	0xbd4e36be	-0.050345175
212	0x3cc28854	0.023746647
213	0xbb52bddd	-0.0032156624
214	0xbd2fcc36	-0.04291936
215	0x3cf95ec0	0.030440688
216	0x3d2da42a	0.042392887
217	0xbd0edbd0	-0.0348776
218	0x3c97308d	0.018455768
219	0xbbb53deb	-0.005531063
220	0xbd32ed9a	-0.043683626
221	0x3d89ac04	0.067222625
222	0xbd06281b	-0.03275309
223	0x3d5711ce	0.052507214
224	0x3c029056	0.007968983
225	0x3ce56505	0.028002271
226	0x3c4a3c4e	0.012343479
227	0xbd746c0d	-0.059673358
228	0x3d571f80	0.052520275
229	0xbd63b60f	-0.055593546
230	0xbd5cf9a5	-0.053949017
231	0xbc377251	-0.011196689
232	0x3d9329b9	0.07185692
233	0xbd667955	-0.056268055
234	0xbcf52f0f	-0.029929666
235	0xbd127c79	-0.035763238
236	0xbc396ace	-0.011316968
237	0xbc9b36e7	-0.018947078
238	0xbb992ee7	-0.0046747806
239	0xbc7be20e	-0.01537372
240	0x3c668534	0.014069844
241	0x3c3f195a	0.011663759
242	0xbc3278c0	-0.010893047
243	0xbc2987b9	-0.0103473
244	0xba246b68	-0.00062721083
245	0xbd22f371	-0.039782945
246	0x3bb2e90c	0.0054599103
247	0x3cba7de9	0.022765117
248	0xbd398e1a	-0.045301534
249	0xbd9c666a	-0.076367214
250	0xbda17229	-0.078831024
251	0xbc4018be	-0.011724649
252	0xbad8613d	-0.0016508471
253	0xbca537d1	-0.020168217
254	0x3c81f33b	0.015863052
255	0xbcbd23b4	-0.023088314

body.0.body.0.bias f4 [32]
0	0xbd36d77f	-0.044639107
1	0x3a4f22de	0.0007901619
2	0x39e0ccea	0.00042877282
3	0xbd731b8c	-0.059352443
4	0x3e10d6fb	0.14144509
5	0x3d404b09	0.04694656
6	0x3db28dc2	0.087184444
7	0x3b704ffe	0.0036668773
8	0xbd0d77ca	-0.034538068
9	0x3bd56f08	0.00651348
10	0x3d838024	0.06420925
11	0x3d41ed79	0.047345612
12	0x3e1a6262	0.15076593
13	0xbcf1ac4f	-0.029501108
14	0x3cafcbdb	0.02145951
15	0x3d92fe73	0.071774386
16	0xbe8c8de2	-0.27451998
17	0x3d04355d	0.032277454
18	0xbdad5602	-0.0846367
19	0xbe66d237	-0.22541128
20	0xbe1f554e	-0.15559885
21	0xbd488ccf	-0.04896241
22	0xbd86f83c	-0.06590316
23	0xbb8b93ae	-0.004259548
24	0x3bff70b3	0.007795417
25	0x3dd4d8bd	0.10392902
26	0xbc866a4b	-0.016408106
27	0x3e052c7a	0.13005248
28	0xbde0c05b	-0.10974189
29	0xbcb9dce1	-0.022688331
30	0x3e04f9c5	0.12985905
31	0xbccfbee6	-0.025359582

body.0.body.2.weight f4 [32, 32, 3, 3]
0	0x3d0b5520	0.03401673
1	0x3c4042e6	0.0117347
2	0xbd45bb43	-0.04827429
3	0x3d2967e4	0.041358843
4	0xbcf876dd	-0.030330116
5	0x3d600fe1	0.054702643
6	0x3d87308e	0.06601058
7	0xbbacd0a5	-0.005273896
8	0x398c7860	0.00026792567
9	0xbd1e442c	-0.038639233
10	0xbd46f304	-0.0485716
11	0xbc96171f	-0.018321572
12	0x3d2e1f9b	0.04251061
13	0x3d477fec	0.04870598
14	0xbb1703ea	-0.0023043104
15	0x3c1b0b46	0.009463137
16	0x3d0817e5	0.033225913
17	0x3cd6401e	0.02615362
18	0x3c9a5169	0.018837648
19	0x3d31ecd4	0.043438748
20	0xbbb728ae	-0.005589566
21	0xbd9b3861	-0.07579113
22	0x3cea4561	0.028597536
23	0x3cb20212	0.021729503
24	0x3cecc9c2	0.0289048
25	0xbc1cf467	-0.009579754
26	0xbc4e78aa	-0.012602011
27	0x3c3d2ddc	0.011546578
28	0xbd4c215a	-0.049836494
29	0xbdac9a43	-0.084278606
30	0x3d0a6486	0.033787273
31	0x3d14accc	0.036297604
32	0x3c26c2c7	0.0101782745
33	0xbcc4ba31	-0.024014564
34	0xbd30b2d5	-0.043139298
35	0x3c97a91e	0.018513259
36	0xbd6eaa21	-0.058267716
37	0x3d94c00d	0.07263193
38	0xbb16941b	-0.0022976461
39	0x3d83d2aa	0.06436665
40	0xbcdcfdad	-0.02697643
41	0x3db2b323	0.08725574
42	0x3cc48551	0.023989351
43	0x3d112e30	0.03544444
44	0xbb736705	-0.0037140262
45	0x3ca05183	0.019570118
46	0xbcd514de	-0.026010927
47	0xbc72360e	-0.014783395
48	0x3cfdf1fc	0.030999176
49	0xbc3662c1	-0.011131943
50	0x3c4ea79c	0.012613203
51	0xbbb7ff41	-0.0056151454
52	0xbc25fa43	-0.010130468
53	0x3c23d8f6	0.010000458
54	0xbb17b867	-0.0023150684
55	0x3d0f5f7d	0.035003174
56	0xbd0835c0	-0.033254385
57	0xbd1b0d86	-0.037854694
58	0x3c9a4677	0.018832428
59	0x3d02b657	0.031912174
60	0xbc3b2429	-0.0114221955
61	0x3d176230	0.036958873
62	0xbcf52627	-0.029925419
63	0x3dbbd87e	0.09172152
64	0x3ca40f42	0.020026807
65	0x3d1d1a47	0.03835514
66	0xbd143d18	-0.036191076
67	0xbcc37ab9	-0.02386223
68	0xbd1165ae	-0.03549736
69	0x3c0418f1	0.008062587
70	0x3b715b98	0.0036828276
71	0x3b9628e0	0.0045825094
72	0x3d5aaf38	0.053389758
73	0x3d8c349a	0.068459705
74	0xbb82f2f2	-0.0039962465
75	0xbd2540df	-0.04034507
76	0x3d46ed3b	0.048566084
77	0x3d4c9d5e	0.049954765
78	0x3ccbfeeb	0.024901828
79	0xbca28702	-0.019839767
80	0xbcff74b3	-0.031183576
81	0x3cee7ca0	0.02911216
82	0xbad65a15	-0.0016353751
83	0xbd33873d	-0.043830145
84	0xbbb04cfe	-0.005380272
85	0x3c0cbae1	0.008589477
86	0x3c1f6bba	0.009730274
87	0x3c700af7	0.014651052
88	0xbcff060a	-0.03113081
89	0xbd3c908d	-0.046036292
90	0xb9b1c219	-0.00033904685
91	0xbce7cf39	-0.028297054
92	0xbb9a9f90	-0.0047187284
93	0xbc0f604d	-0.008750987
94	0x3d144c4b	0.03620557
95	0xbc96ef2a	-0.01842459
96	0x3d4556f5	0.04817863
97	0xbba5a79d	-0.0050553815
98	0x3cd3fbc0	0.02587688
99	0x3d455922	0.048180707
100	0xbc82e185	-0.015976677
101	0x3d2a8892	0.04163415
102	0xbd8b54b0	-0.06803262
103	0x3bd08ec6	0.006364676
104	0x3b977b2a	0.0046228366
105	0xbc019e30	-0.00791125
106	0x3c8a1ab5	0.016858438
107	0x3c042c57	0.008067212
108	0xbc97f065	-0.018547246
109	0x3db1ea2a	0.086872414
110	0x3cfaf7d9	0.030635761
111	0xbbe9d677	-0.007136162
112	0xba3a785b	-0.0007113271
113	0x3d7414d5	0.05959018
114	0xbcb9ff0a	-0.02270462
115	0xbc15f3de	-0.009152381
116	0xbd533836	-0.05156728
117	0xbc8e3268	-0.01735802
118	0xba641017	-0.00086999073
119	0x3d4ac6b2	0.049505897
120	0xbb9a1c52	-0.004703083
121	0x3ca0cace	0.019627955
122	0xbd06c377	-0.032901254
123	0xbc77df8e	-0.015128983
124	0x3d6125b2	0.05496759
125	0x3d176968	0.036965758
126	0xbca4dafd	-0.020123953
127	0xbbaaa520	-0.0052076727
128	0xbd4737c9	-0.048637185
129	0x3cb1bf2c	0.021697603
130	0x3b98e471	0.004665904
131	0xbc980e0d	-0.018561387
132	0x3cd0d871	0.025493832
133	0xbd885484	-0.06656745
134	0x3b1a62f1	0.0023557509
135	0x3c99bd1d	0.018766934
136	0x3c9ad977	0.018902523
137	0x3d148aa5	0.036265034
138	0x3cd15942	0.025555257
139	0x3d879e4c	0.066219896
140	0x3c9fe2a7	0.019517256
141	0x3d6f521c	0.058427915
142	0xbc3543af	-0.0110635
143	0xbc9d2b91	-0.019185813
144	0xbd2e82ef	-0.042605337
145	0xbcb28038	-0.021789655
146	0x3c83dce2	0.016096536
147	0x3d5d1d3f	0.05398297
148	0xbd2ab087	-0.041672256
149	0xbcc8f504	-0.024530895
150	0xbca1a93c	-0.019734018
151	0x3ce4f05d	0.027946645
152	0x3d187e86	0.037230037
153	0xbd3e773a	-0.046500422
154	0xbaae9f21	-0.0013322571
155	0x3ca33928	0.019924715
156	0x3d819633	0.06327476
157	0xbc58da06	-0.013235575
158	0x3d2485a8	0.040166527
159	0x3c77dd3f	0.015128433
160	0xbc0e1441	-0.008671821
161	0x3d0ccd57	0.034375515
162	0x3caec28d	0.021333003
163	0xbcaa35f7	-0.020777686
164	0xbc837e1b	-0.016051343
165	0x3c9ddf0e	0.0192714
166	0x3bf87190	0.007581897
167	0x3caf66bb	0.02141129
168	0xbc2359e0	-0.009970158
169	0xbc58b487	-0.013226635
170	0xbb099290	-0.00209919
171	0x3bcfcb1c	0.006341351
172	0x3ce0e9ac	0.027455173
173	0xbd255462	-0.040363677
174	0x3d1b5340	0.03792119
175	0xbcf3caca	-0.029759783
176	0xbd826ce0	-0.063684225
177	0xbc7cb249	-0.015423366
178	0xbca07987	-0.019589199
179	0x3cd54c24	0.026037283
180	0x3d475efb	0.048674565
181	0xbc61c63e	-0.013780175
182	0xbd7284a3	-0.059208523
183	0x3c8d1d76	0.017225962
184	0xbcd32d70	-0.025778502
185	0xbd0219e4	-0.031762972
186	0x3bdc3765	0.0067204707
187	0xbd79ec81	-0.061016563
188	0x3cb2e0f7	0.021835787
189	0x3c241f64	0.01001725
190	0x3d3841e3	0.04498471
191	0xbd007a61	-0.03136671
192	0xbcd08d61	-0.02545804
193	0x3d9e2e0c	0.077236265
194	0xbbfe70f9	-0.0077649322
195	0xbd2930f5	-0.041306455
196	0xbd31fa1f	-0.043451425
197	0x3d151e4a	0.03640584
198	0xbcf48bee	-0.02985188
199	0x3cad3427	0.021143032
200	0xbd3b6fe1	-0.045760993
201	0xba96449b	-0.0011464538
202	0xbbfd3def	-0.0077283303
203	0xbc0874a8	-0.008328594
204	0xbbf85e2e	-0.0075795865
205	0xbca803d4	-0.020509638
206	0x3d0b138c	0.03395419
207	0x3d08da04	0.03341104
208	0xbb174afa	-0.002308546
209	0xbcc19116	-0.023628753
210	0xbcc7470f	-0.024325876
211	0x3c5d92d7	0.013523779
212	0x3c26473f	0.010148822
213	0x3d059ef0	0.032622278
214	0x3c0f3f37	0.008743099
215	0x3cab8408	0.02093698
216	0x3cdc3f21	0.026885571
217	0xbd4f376e	-0.05058997
218	0x3ceb0127	0.028687073
219	0x3c062d68	0.008189537
220	0x3c5b62c4	0.013390247
221	0x3cf82ff0	0.030296296
222	0x3c9a44c9	0.018831627
223	0xbb9f4da8	-0.0048615523
224	0x3cd3b87e	0.025844809
225	0x3cba92bd	0.022775048
226	0x3d2b7ea0	0.041868806
227	0xbca163dc	-0.019700937
228	0xbcf037bb	-0.02932345
229	0xbd451e8a	-0.048124827
230	0xbd610dab	-0.054944675
231	0xbc8777a5	-0.016536543
232	0xbd252009	-0.040313754
233	0x3d1cfe86	0.03832867
234	0xbc233008	-0.009960182
235	0xbcdeb8ac	-0.027187668
236	0xbca306ea	-0.019900758
237	0xbc997b88	-0.018735662
238	0x3d331948	0.043725282
239	0x3d9f5030	0.077789664
240	0x3d656d5f	0.056012508
241	0xbcc1b7b7	-0.023647172
242	0xbb734726	-0.0037121265
243	0xbd3304cd	-0.04370575
244	0x3d3cd65b	0.046102863
245	0x3d46a85d	0.048500407
246	0xbcc70d7b	-0.02429842
247	0x3d260ef4	0.040541604
248	0xbd309dde	-0.043119304
249	0xbd715e9f	-0.05892813
250	0x3c2d6fc4	0.010585729
251	0xbd81c679	-0.06336684
252	0xbccd146e	-0.025034156
253	0x3cc0238b	0.023454448
254	0xbd287a09	-0.041132007
255	0xbc983d8c	-0.018584035

body.0.body.2.bias f4 [32]
0	0x397729ae	0.00023571283
1	0xbd52dca1	-0.05147994
2	0xbc8e919e	-0.01740342
3	0x3c4b666b	0.012414555
4	0x3d168110	0.036744177
5	0xbda074d5	-0.07834784
6	0xbbdca893	-0.006733963
7	0xbbb916e1	-0.0056484793
8	0x39a60181	0.00031663108
9	0xbc4fa0c5	-0.012672608
10	0xbd7a8669	-0.06116334
11	0x395f04b7	0.00021268694
12	0xbcc40dbf	-0.023932336
13	0xbd3e54ca	-0.04646758
14	0x3d83a1bd	0.064273335
15	0x3ce2def5	0.027694205
16	0x3b6f845e	0.0036547403
17	0x3d8bafdb	0.06820651
18	0xbd02c770	-0.03192848
19	0xbd599b2e	-0.053126507
20	0x3ce5370d	0.027980352
21	0x3cfd3834	0.030910589
22	0x3bd2134b	0.0064109913
23	0x3afb0e18	0.001915398
24	0x3ce1b1af	0.027550546
25	0x3bf5e93b	0.00750461
26	0xbcf5545d	-0.029947454
27	0x3d657a78	0.056025
28	0x3d95c4b1	0.073129065
29	0xbad10aa7	-0.0015948609
30	0xbc63057e	-0.01385629
31	0xbc900747	-0.017581595

body.1.body.0.weight f4 [32, 32, 3, 3]
0	0x3d767394	0.060168818
1	0xbc758c03	-0.014986995
2	0x3d32b2d7	0.043627586
3	0x3ce5fdb9	0.028075086
4	0x3d441890	0.047874987
5	0xbd89d47b	-0.067299806
6	0xbdd6582b	-0.104660355
7	0xbd549324	-0.051898137
8	0xbd5b9f67	-0.053618815
9	0x3c99e952	0.018788014
10	0xbbef89ed	-0.007310143
11	0xbd1b6a09	-0.03794292
12	0x3d4b93ea	0.04970161
13	0xbd82fac1	-0.06395484
14	0xbd4507b3	-0.048103046
15	0x3d0cc30a	0.03436569
16	0xbc95f01e	-0.018302973
17	0x3d7411fc	0.059587464
18	0x3db20cbd	0.08693836
19	0xbc2bbcc6	-0.010482019
20	0xbcef602c	-0.029220663
21	0x3cd64bfa	0.026159275
22	0xbd9356ab	-0.07194265
23	0xbcbfdb99	-0.023420142
24	0x3d42900f	0.047500666
25	0xbc01375a	-0.007886732
26	0xbdb66b9e	-0.08907245
27	0x3cbb942d	0.022897804
28	0x3bb28b67	0.005448747
29	0x3dc3214f	0.095278375
30	0xbc0a7995	-0.008451839
31	0x3c8250c0	0.015907645
32	0x3d5fe19f	0.05465853
33	0x3d4acdf9	0.049512837
34	0x3c8eb0a9	0.017418223
35	0xbca414c3	-0.020029431
36	0xbd2f9259	-0.042864177
37	0xbd04f910	-0.032464087
38	0x3d8c7eba	0.06860109
39	0xbd5c2392	-0.05374486
40	0xbd00c931	-0.03144187
41	0x3cb319b4	0.021862842
42	0x3cb6a953	0.022297537
43	0xbd0c5e61	-0.034269694
44	0xbdb4fb3b	-0.08836981
45	0xbc326ae3	-0.010889742
46	0xbb88a711	-0.0041703065
47	0x3daeca5a	0.08534689
48	0xbd41c376	-0.047305547
49	0xbd2bb5e0	-0.041921496
50	0x3ccfeb96	0.02538089
51	0x3d39f28c	0.045397326
52	0xbcd01f2f	-0.025405494
53	0x3db4928d	0.08817015
54	0x3cb3a48d	0.02192905
55	0xbd019187	-0.031632926
56	0xbc40031b	-0.01171949
57	0xb91c2ede	-0.00014894779
58	0xbcd8f9fa	-0.026486386
59	0x3ccd2ae8	0.025044873
60	0x3bbbd8bd	0.0057326243
61	0x3d3dfa13	0.046381067
62	0xbd9102b2	-0.07080592
63	0xbcf00812	-0.029300723
64	0x3cfd5d58	0.030928299
65	0xbc5733f4	-0.013134945
66	0x3b9aa013	0.0047187894
67	0xbc06df9e	-0.008232025
68	0x3c2b9434	0.010472346
69	0xbb1a4610	-0.0023540296
70	0x3cc66843	0.024219638
71	0xbd654101	-0.055970196
72	0xbc89246c	-0.016741
73	0xbcaa8da0	-0.020819485
74	0xbda49385	-0.080359496
75	0x3ca0f999	0.019650267
76	0x3c01c433	0.007920313
77	0xbc149f13	-0.009071129
78	0xbdad437b	-0.084601365
79	0xbbc07d8d	-0.005874342
80	0xbd957f8f	-0.072997205
81	0xbd040fde	-0.032241695
82	0x3cfcb7e5	0.030849406
83	0xbbf48d89	-0.0074631614
84	0xbc4f6810	-0.012659088
85	0x3d039ff0	0.03213495
86	0xbd36337f	-0.044482704
87	0xbbbda6c8	-0.005787704
88	0x3ca9bf06	0.02072097
89	0xbd0ff751	-0.03514797
90	0xbb6d3568	-0.0036195163
91	0xbd24472f	-0.04010695
92	0xba90a730	-0.0011036154
93	0xbd7525d1	-0.059850518
94	0xbd8d1302	-0.06888391
95	0x3ca90244	0.020630963
96	0xbd771f6e	-0.060332708
97	0xbcd3df7e	-0.025863405
98	0xbc34d461	-0.011036963
99	0x3d112813	0.03543861
100	0xbd3c829d	-0.046023
101	0xbba337ed	-0.004981032
102	0xbce51ff7	-0.027969344
103	0xbcc15c55	-0.023603598
104	0x3c615672	0.01375352
105	0xbcc606c5	-0.02417315
106	0xbc90ec45	-0.017690787
107	0x3b1637c9	0.0022921434
108	0xbd3addf0	-0.045621812
109	0xbcdff2a8	-0.027337387
110	0x3d6d601b	0.05795298
111	0x3d072e8b	0.03300337
112	0x3cd381ea	0.025818784
113	0x3d77cf2d	0.060500313
114	0x3d4ede0e	0.050504737
115	0xbd8b9b26	-0.068167016
116	0xbdf72196	-0.12066953
117	0x3d30d7bd	0.043174494
118	0xbd00d33a	-0.03145144
119	0x3ae8ecd8	0.001777078
120	0xbd6197ad	-0.05507629
121	0xbc65a5ec	-0.01401661
122	0xbd3ee1fa	-0.046602227
123	0xbdcb9ac4	-0.099416286
124	0x3c2cd685	0.010549192
125	0xbdad54f3	-0.084634684
126	0x3cd01f21	0.025405468
127	0x3bbab581	0.0056979065
128	0x3bb84d70	0.0056244656
129	0x3cd537cc	0.026027583
130	0x3d287b86	0.041133426
131	0xbd589f86	-0.05288651
132	0xbca49507	-0.020090593
133	0x3c973182	0.018456224
134	0xbb0524ee	-0.0020316201
135	0x3bb25825	0.0054426366
136	0xbae16451	-0.0017196034
137	0xbd245976	-0.04012438
138	0x3d7db7db	0.061942916
139	0xbd681a72	-0.056665845
140	0x3b89a9cd	0.00420115
141	0xbd836e5d	-0.064175345
142	0xbd1e7704	-0.03868772
143	0xbc7b39c5	-0.015333598
144	0xba9b93fd	-0.0011869665
145	0x3992a6ad	0.00027971473
146	0x3d95276a	0.07282908
147	0xbd8d5b86	-0.06902222
148	0x3d5b0bd7	0.05347809
149	0x3c62e8c4	0.013849441
150	0x3d517857	0.051140156
151	0x3cfdb829	0.030971603
152	0xbd91a893	-0.07112231
153	0xbc443a4f	-0.0119767925
154	0xbc1e4b08	-0.0096614435
155	0xbdad0de2	-0.084499136
156	0x3d7c1f9c	0.061553583
157	0x3d401857	0.046898212
158	0x3cbeac83	0.02327562
159	0xbbd714bc	-0.006563751
160	0xbc82d6eb	-0.015971621
161	0x3d307aef	0.04308599
162	0x3d85bca8	0.06530124
163	0xbcbbf93a	-0.022945989
164	0x3c289945	0.010290449
165	0x3ca8bffa	0.020599354
166	0xbcf8fa9c	-0.030392937
167	0xbcb51172	-0.022103045
168	0xbdca8c71	-0.09890068
169	0x3d1549b6	0.03644725
170	0x3cb38182	0.02191234
171	0xbd2198c4	-0.03945233
172	0xbd684ec0	-0.056715727
173	0x3b71017f	0.0036774573
174	0xbce0b116	-0.027428191
175	0x3d035a4a	0.03206853
176	0x3c9ec5ab	0.019381365
177	0xbcd7336a	-0.026269633
178	0xbd8ee0cb	-0.069764696
179	0xbe422c69	-0.18962254
180	0xbc68e3f0	-0.014214501
181	0xbd4d800d	-0.050170947
182	0x3cb222cf	0.021745114
183	0xbd0533b1	-0.03252
184	0x3cb1160e	0.021616962
185	0x3b3347d6	0.002735605
186	0x3d2bdd6d	0.041959215
187	0xbd4f79fa	-0.050653435
188	0xbd27bf94	-0.040954188
189	0x3d508183	0.050904762
190	0x3bf4be4d	0.0074689747
191	0xbcacbfc7	-0.02108754
192	0xbd2e9a05	-0.042627353
193	0xbc9168ea	-0.017750222
194	0xbd2962a3	-0.041353833
195	0x3d6cf105	0.05784704
196	0x3c8fd22d	0.017556274
197	0xbd48dc83	-0.04903842
198	0xbcabfb6c	-0.02099391
199	0x3ce5cedf	0.028052745
200	0x3c32e81e	0.010919599
201	0xbd43c020	-0.047790647
202	0x3d8eb083	0.06967261
203	0xbbf51cc9	-0.007480238
204	0xbbfbf7fb	-0.0076894737
205	0xbd4eafa2	-0.050460465
206	0xbd4a2b5c	-0.049357757
207	0x3cd8fdc3	0.02648819
208	0xbd41bdbc	-0.047300085
209	0x3c823d90	0.015898496
210	0xbceb9989	-0.028759735
211	0xbc40f50b	-0.011777173
212	0xbd4925f1	-0.04910845
213	0x3d456920	0.04819596
214	0x3b6a115f	0.003571592
215	0xbd3f84f7	-0.046757665
216	0xbc62c3fb	-0.013840671
217	0xbd4b0df0	-0.04957384
218	0x3bb27309	0.005445842
219	0x3d364d28	0.044507176
220	0xbd5b1b43	-0.053492796
221	0xbc57977e	-0.013158677
222	0xbce00016	-0.027343791
223	0x3bfcd95a	0.00771634
224	0x3d416a66	0.04722061
225	0x3d35618e	0.04428249
226	0xbd1f5d47	-0.038907316
227	0x3d7c61cc	0.061616704
228	0x3d6c4668	0.057684332
229	0x3d3ce31d	0.04611503
230	0x3d8cddc4	0.06878236
231	0xbcb3f5b3	-0.021967744
232	0x3d0811d9	0.033220146
233	0xbdd4ee3e	-0.103970036
234	0x3d725dbd	0.059171427
235	0xbb90c97a	-0.004418549
236	0xbcdecf95	-0.027198592
237	0x3d376eaf	0.04478329
238	0xbb0ff76c	-0.0021967543
239	0xb9e2f95e	-0.00043291872
240	0xbcaef0a0	-0.021354973
241	0x3c8f2b2d	0.017476643
242	0x3abbd825	0.0014331384
243	0xbd4b231e	-0.049594037
244	0xbcab6e3b	-0.020926585
245	0xbd6117ca	-0.054954328
246	0x3bc0d09b	0.0058842427
247	0xbca80de9	-0.020514445
248	0xbd3aad7e	-0.04557561
249	0x3db82890	0.08992112
250	0x3ccfd7a8	0.025371388
251	0xbd13a6b0	-0.036047637
252	0x3bb5350d	0.005530006
253	0xbd0cf728	-0.034415394
254	0xbc38c3a3	-0.011277112
255	0x3ca8f735	0.02062569

body.1.body.0.bias f4 [32]
0	0xbd1e6778	-0.038672894
1	0x3cdf5e22	0.027266566
2	0xbd8266aa	-0.06367238
3	0x3d2dbd9d	0.042417157
4	0xbd181d02	-0.03713704
5	0xbb4257d9	-0.0029654412
6	0xbb9537c6	-0.004553768
7	0x3ca66a8f	0.020314483
8	0x3deef462	0.11667706
9	0x3c9d04ff	0.019167421
10	0xbd157503	-0.036488544
11	0xbce1dbe8	-0.02757068
12	0x3d20de90	0.039274752
13	0x3ca055a5	0.019572088
14	0xbc945737	-0.018107994
15	0xbd4f6124	-0.05062975
16	0xbd382d40	-0.04496503
17	0x3c847de7	0.016173316
18	0x3d845430	0.0646137
19	0xbcc36b3c	-0.023854844
20	0xbd8ee911	-0.06978048
21	0xbb9e1fe2	-0.004825578
22	0xbc4340aa	-0.011917273
23	0xbda79672	-0.08182992
24	0xbceed9ba	-0.029156554
25	0xbc63cf0b	-0.013904343
26	0xbd8fb656	-0.070172
27	0x3d891673	0.06693735
28	0x3db0e480	0.08637333
29	0xbd048eff	-0.032362934
30	0xbc791377	-0.015202395
31	0x3d19762e	0.03746622

body.1.body.2.weight f4 [32, 32, 3, 3]
0	0x3dc2a4a8	0.09504062
1	0x3da9ccc5	0.0829101
2	0xbd6c457b	-0.05768345
3	0x3d831df8	0.064022005
4	0xbd28877b	-0.04114483
5	0x3d5e071c	0.054206
6	0xbdc5ef05	-0.0966473
7	0x3d1610fc	0.03663729
8	0x3d26d664	0.040731803
9	0xbd6ae04b	-0.05734281
10	0x3d458c54	0.04822953
11	0xbadfac25	-0.0017064853
12	0x3cb33e75	0.021880368
13	0xbd14e69f	-0.03635275
14	0xbc9d76ef	-0.019221751
15	0x3d0261a4	0.0318314
16	0xbd08481d	-0.033271898
17	0xbd499ed2	-0.04922373
18	0xbca150ae	-0.019691791
19	0x3c97bd24	0.018522806
20	0x3d23c345	0.039981145
21	0x3dabdd37	0.08391803
22	0xbd3709c5	-0.04468705
23	0x3cf65514	0.030069865
24	0xbcdac35e	-0.026704486
25	0xbc9f3928	-0.019436434
26	0xbc1ecf53	-0.009692985
27	0xbd4dbbe2	-0.050228007
28	0x3d3891d3	0.045060944
29	0x3bfeb542	0.0077730725
30	0x3d25891e	0.04041397
31	0x3cc96e16	0.024588626
32	0x3d9d01bc	0.076663464
33	0xbce0459c	-0.027376942
34	0xbca9d9be	-0.02073371
35	0xbb536fd2	-0.0032262695
36	0x3b0fa61d	0.002191908
37	0xbaeb32a2	-0.0017944167
38	0x3bfa2dee	0.00763487
39	0x3c85a2af	0.016312925
40	0xba493da4	-0.00076767267
41	0xbd6a4a2d	-0.057199646
42	0x3d4091e2	0.047014125
43	0x3c77b2a9	0.0151182795
44	0x3dacc5d6	0.08436172
45	0x3b353557	0.0027650201
46	0x3c800339	0.015626537
47	0x3d653259	0.05595622
48	0x3d895eee	0.067075595
49	0x3d289203	0.041154873
50	0x3ca9c3d9	0.02072327
51	0xbc830416	-0.01599316
52	0xbcd0cad3	-0.02548734
53	0xbbdac36a	-0.006676127
54	0x3d044bad	0.032298733
55	0x3d95cad2	0.073140755
56	0x3d0f49e4	0.034982577
57	0xbd49792a	-0.049187817
58	0xbc267da1	-0.010161788
59	0x3d1be280	0.038057804
60	0x3b268860	0.0025410876
61	0xbd651f58	-0.055938095
62	0xbc295d0a	-0.010337124
63	0x3c106069	0.0088120485
64	0xbc97408a	-0.018463392
65	0xbcdaffed	-0.026733363
66	0xbbb232ae	-0.0054381704
67	0x3c88927e	0.016671415
68	0xbb199e14	-0.002344017
69	0xbcc7c9e2	-0.024388257
70	0x3cdf561d	0.027262742
71	0x3c86ab67	0.016439153
72	0xbd001f1f	-0.03127968
73	0x3c070e88	0.008243211
74	0x3d8b1043	0.06790211
75	0x3d22b98e	0.03972774
76	0xbb529b40	-0.0032135993
77	0x3d3e878a	0.04651598
78	0x3bbf9ebe	0.005847781
79	0xbd6fa8ea	-0.0585107
80	0x3d0bfd18	0.034176916
81	0xbd69abee	-0.05704873
82	0xbd05eac6	-0.0326946
83	0xbc384664	-0.011247251
84	0x3cbf6086	0.023361456
85	0x3d0f7d41	0.03503156
86	0x3a9fe43e	0.0012198759
87	0x3c705497	0.014668605
88	0xbd8a71bb	-0.067599736
89	0x3cfd5dc2	0.030928496
90	0xbd9016a0	-0.070355654
91	0x3cdc2fa0	0.026878178
92	0x3d2ebead	0.04266231
93	0x3c8805a9	0.016604261
94	0xbcfd15cc	-0.030894183
95	0xbd3489d3	-0.044076752
96	0xbd78df5d	-0.06075989
97	0x3caebd1b	0.021330407
98	0x3d677919	0.056511972
99	0x3c3074d2	0.01077004
100	0x3c601b22	0.013678344
101	0x3d6bd6ff	0.057578083
102	0x3c98006a	0.018554885
103	0x3cc154b8	0.023599967
104	0xbc805d61	-0.015669527
105	0x3dacae4d	0.08431683
106	0x3ddd3d49	0.10802705
107	0x3d9568d9	0.07295389
108	0x3b90f4da	0.00442372
109	0xbd3f8fd7	-0.046768036
110	0x3b5a2b58	0.0033289995
111	0x3da4d4b6	0.08048384
112	0x3d9c243d	0.076240994
113	0x3ca1aea2	0.019736592
114	0x3c11bc09	0.008894929
115	0x3d1c5aec	0.038172647
116	0xbb856a10	-0.0040714815
117	0x3d58df36	0.052947246
118	0x3d0041f2	0.03131289
119	0x3cbcf358	0.023065254
120	0xbcd10f50	-0.025519997
121	0x3c520ef2	0.012820946
122	0xbc0715ca	-0.008244941
123	0xbc5fa329	-0.01364974
124	0xbcb4a868	-0.022052959
125	0x3b7c8bbe	0.0038535441
126	0xbd080a16	-0.033212744
127	0x3d0e0afb	0.03467844
128	0xbcc42595	-0.023943702
129	0x3d4fab64	0.05070056
130	0xb9a13d28	-0.00030753878
131	0x3d5a0a15	0.05323227
132	0xbd52290a	-0.05130867
133	0x3ca725a0	0.020403683
134	0x3b53f85a	0.0032344074
135	0xbc571ed7	-0.013129911
136	0x3dfdaa6d	0.12386022
137	0x3c77a202	0.015114309
138	0xbd0c698c	-0.034280345
139	0x3d267264	0.040636435
140	0x3d66c4a2	0.056339867
141	0x3d1a5d51	0.03768665
142	0x3d4ee9d2	0.050515957
143	0xbd43c1dc	-0.0477923
144	0x3b47ea7a	0.003050475
145	0xbd1a4e94	-0.037672594
146	0xbd136f18	-0.03599462
147	0x3d5ee88e	0.054421
148	0x3d59a84c	0.053139016
149	0xbd7fb8eb	-0.06243221
150	0xbd233bff	-0.03985214
151	0x3d358ebc	0.044325575
152	0xbd7a31d1	-0.061082665
153	0x3d3e0bfa	0.04639814
154	0xbbf9938f	-0.0076164673
155	0x3d8bc6c6	0.068250224
156	0x3be16cdb	0.0068794317
157	0x3ca8714a	0.020561833
158	0x3bbe9b4a	0.0058168517
159	0x3d932219	0.07184238
160	0xbd30f6a7	-0.043203976
161	0x3dae8250	0.08520949
162	0x3cbd2544	0.023089059
163	0x3d0460ff	0.032319065
164	0xbc2b2252	-0.010445194
165	0x3d7c68ac	0.06162326
166	0x3d2aba45	0.041681547
167	0xbce1a756	-0.027545612
168	0xbd06d066	-0.032913588
169	0x3d8fa13a	0.070131734
170	0x3bc7694a	0.0060855495
171	0x3bd02683	0.006352247
172	0xbc5789b7	-0.013155392
173	0xbd31ebbf	-0.043437716
174	0xbd26f4d5	-0.040760834
175	0xbced11c7	-0.028939141
176	0xbd841031	-0.06448401
177	0x3cd9ca14	0.026585616
178	0x3cd8e93b	0.0264784
179	0x3c8008a4	0.01562912
180	0x3af5906c	0.0018735058
181	0xbd06c972	-0.032906957
182	0x3bf716be	0.007540553
183	0x3c3df255	0.011593421
184	0xbd894c13	-0.06703963
185	0x3d66d9b5	0.056359965
186	0xbcd663e9	-0.026170688
187	0xbcd5f16e	-0.0261161
188	0xbb6088c3	-0.0034261204
189	0x3b88a413	0.00416995
190	0xbd9f85ed	-0.07789216
191	0x3c776989	0.015100845
192	0x3cc32c98	0.023824975
193	0x3d85c662	0.06531979
194	0xbcc6ad50	-0.024252564
195	0x3cd55e14	0.026045837
196	0x3c3c3109	0.0114863
197	0x3c5bd166	0.013416624
198	0xbbf33295	-0.0074218013
199	0x3d3153cb	0.0432928
200	0x3d1833e2	0.037158854
201	0x3d72e5e7	0.059301283
202	0x3ce6e924	0.028187342
203	0xbd4a6d42	-0.049420603
204	0x3cc71eb5	0.024306634
205	0xbd31d69c	-0.043417558
206	0x3c0be114	0.0085375495
207	0x3db9f614	0.09080139
208	0xbd63f733	-0.05565567
209	0x3ca38fde	0.019966062
210	0xbca81e7c	-0.020522349
211	0xbb2a6c6b	-0.0026004564
212	0xbd21105e	-0.03932225
213	0x3b2f2a21	0.0026727992
214	0xbbd13b0e	-0.0063852137
215	0xbcb1e637	-0.02171622
216	0x3b296b6a	0.0025851377
217	0xbcd60cf4	-0.026129223
218	0xbbfdcb61	-0.007745192
219	0x3c8792c3	0.016549474
220	0x3c14c209	0.009079465
221	0x3cdd446b	0.027010163
222	0xbce8b960	-0.028408706
223	0x3c27b026	0.010234868
224	0xbcb34788	-0.021884695
225	0x3d6fcd90	0.05854565
226	0xbcd1e32c	-0.02562102
227	0x3d881acc	0.06645736
228	0x3d11bedd	0.035582412
229	0x3ba991cb	0.0051748506
230	0x3d23d6de	0.039999835
231	0xbcdccf44	-0.0269543
232	0xbcfcf48e	-0.030878332
233	0x3d56ddb7	0.052457538
234	0xbcc6e9df	-0.02428144
235	0x3c19d01c	0.009387996
236	0xbc0e5e3d	-0.00868946
237	0xbc1555c6	-0.009114688
238	0xbbf747eb	-0.007546415
239	0x3bc7d91c	0.0060988795
240	0x3c108f60	0.008823246
241	0xbcbe9383	-0.023263698
242	0xbd701a83	-0.058619034
243	0x3d207021	0.039169434
244	0x3df14e7c	0.11782548
245	0x3c90372a	0.01760443
246	0x3d17a3ff	0.037021633
247	0x3daf6f31	0.0856613
248	0xbc9940ce	-0.01870766
249	0x3c0f9725	0.008764063
250	0x3d246a02	0.04014016
251	0x3d356e9f	0.04429495
252	0x3d37bfb8	0.04486057
253	0x3b565694	0.0032705413
254	0x3d06ca1b	0.032907587
255	0xbd432a3a	-0.047647692

body.1.body.2.bias f4 [32]
0	0x3daf49db	0.08559009
1	0xbd291ac0	-0.041285276
2	0xbd2824f5	-0.04105087
3	0xbd16c8bc	-0.03681253
4	0xbb67d5ae	-0.0035375166
5	0xbcd71c85	-0.026258716
6	0xbbece616	-0.007229577
7	0xbd06d7c6	-0.03292062
8	0xbc385ad6	-0.011252126
9	0x3c0593c4	0.008152906
10	0xbd8dc80b	-0.06922921
11	0x3d808281	0.06274892
12	0x3d1c8f52	0.03822262
13	0xbd51969e	-0.05116903
14	0x3d35add5	0.044355232
15	0xbbf57775	-0.007491047
16	0xbc9a6b82	-0.018850092
17	0x3d7bb48c	0.06145148
18	0x3cfa44ef	0.030550448
19	0xbd9545b6	-0.07288687
20	0x3d012c09	0.031536136
21	0xbd086385	-0.033298034
22	0x3bbaa028	0.0056953616
23	0x3d566f82	0.052352436
24	0x3d1e86ce	0.03870278
25	0xbd2a22dd	-0.041537154
26	0xbd5c7583	-0.053823005
27	0x3d15b437	0.03654882
28	0x3d510a47	0.051035192
29	0xbd654bb1	-0.055980388
30	0x3d826cbf	0.06368398
31	0xbc056ba8	-0.008143343

body.2.body.0.weight f4 [32, 32, 3, 3]
0	0xbcc13aac	-0.023587547
1	0x3cdbc779	0.026828514
2	0x3cecba19	0.028897332
3	0x3d3418ad	0.043968845
4	0xbcf1a4ac	-0.029497467
5	0xbd457e34	-0.04821606
6	0xbd047443	-0.03233744
7	0xbb9d1fef	-0.0047950665
8	0x3d415bb6	0.047206603
9	0x3cbb5f02	0.022872452
10	0xbd0c2c30	-0.034221828
11	0x3c603407	0.013684279
12	0x3cab1ec2	0.02088869
13	0x3d43fdcf	0.047849473
14	0xbc8e7e65	-0.017394254
15	0x3c8a9796	0.016917985
16	0xbb4cc150	-0.0031243153
17	0xbdc5a5e0	-0.09650779
18	0x3d1d4f98	0.038405985
19	0xbcc04f28	-0.023475245
20	0xbd4bee4a	-0.049787797
21	0x3cf62467	0.030046655
22	0x3cf94581	0.03042865
23	0x3dbaef5b	0.09127685
24	0x3c4b2a7c	0.012400266
25	0x3cde9b40	0.027173638
26	0xbbfd46be	-0.0077293804
27	0x3d51e884	0.051247135
28	0xbce5cc0d	-0.0280514
29	0xbb9a62fb	-0.0047115064
30	0xbcd42156	-0.025894802
31	0x3da36196	0.079775974
32	0xbd8e0ded	-0.0693625
33	0xbcf5f963	-0.030026143
34	0xbc23534a	-0.009968588
35	0xbcf07e30	-0.029357046
36	0xbd690c2c	-0.056896374
37	0xbc54bc43	-0.012984338
38	0x3cf28277	0.029603226
39	0xb98e07cc	-0.0002709016
40	0xbd94afcb	-0.07260092
41	0xbdaf9068	-0.08572465
42	0x3cf6be4e	0.030120041
43	0xbd2b6ad9	-0.041849945
44	0xbbbc0f63	-0.005739139
45	0xbc410cc6	-0.011782831
46	0xbbe723c0	-0.0070538223
47	0xbd5e8d84	-0.05433418
48	0x3cba9406	0.022775661
49	0x3cb4f234	0.022088148
50	0xbd16b7ed	-0.0367965
51	0x3ca67e51	0.020323904
52	0x3d1f11ab	0.03883521
53	0xbd826852	-0.06367554
54	0x3c1d72a2	0.00960985
55	0xbd523336	-0.05131837
56	0x3d5866b1	0.05283231
57	0x3d3bdd72	0.045865484
58	0xbd398615	-0.045293886
59	0xbcc05a9f	-0.023480712
60	0xbd06bfbb	-0.032897692
61	0xbd5af19d	-0.053453077
62	0xbb792836	-0.0038018352
63	0x3b2431db	0.002505413
64	0x3d4ccabc	0.04999803
65	0x3c80e8ef	0.015736071
66	0x3c29bd17	0.010360024
67	0x3d31b24f	0.04338294
68	0x3cdbe6ed	0.026843512
69	0xbd18350b	-0.03715996
70	0xbc9ab3e3	-0.018884605
71	0xbd9ffc54	-0.078118
72	0x3d28c0ab	0.041199367
73	0xbd2b4f59	-0.04182372
74	0x3be1b186	0.0068876175
75	0x3d4db9c0	0.050225973
76	0xbd84cb39	-0.06484074
77	0xbc9af158	-0.01891391
78	0xbcbeb0bd	-0.023277635
79	0xbcb5402d	-0.022125328
80	0xbccb30aa	-0.024803478
81	0x3c8f9a36	0.017529588
82	0xba867c1c	-0.0010260376
83	0x3caa7f81	0.020812752
84	0xb8c7168d	-9.49326e-05
85	0x3ca874b4	0.02056346
86	0xbd15c5c4	-0.036565557
87	0xbca6b233	-0.020348644
88	0xbc95212a	-0.01820429
89	0x3b9dc212	0.0048143947
90	0x3d6d7f7c	0.057982907
91	0xbcae0e44	-0.021247037
92	0x3c732f05	0.014842753
93	0x3d35198d	0.04421382
94	0xbbd29a21	-0.006427065
95	0x3d95ac3a	0.0730824
96	0x3ca5fb5f	0.020261465
97	0x3b1d4e3f	0.0024002937
98	0x3d8fec7d	0.070275284
99	0x3c8f6a37	0.017506702
100	0x3c66ce1e	0.014087228
101	0xbb46e3fe	-0.0030348296
102	0xbcc9e1d8	-0.024643824
103	0x3c5bd6e5	0.013417934
104	0xbd2c7e30	-0.04211253
105	0x3c10b3de	0.008831946
106	0xbcef89c1	-0.02924049
107	0xbd2ed395	-0.04268225
108	0xbc401439	-0.011723571
109	0xbd2959b9	-0.04134533
110	0x3c99fb5f	0.01879662
111	0xbc10302b	-0.008800547
112	0x3d4a5861	0.04940069
113	0x3b08e1b5	0.0020886485
114	0x3d00cfcb	0.031448167
115	0x3d66246f	0.05618709
116	0xbd27ee64	-0.04099883
117	0xbc986817	-0.018604321
118	0x3b9bb34d	0.004751599
119	0x3cc032a5	0.02346165
120	0x3bfd1b94	0.007724235
121	0xbbcee9c3	-0.0063144877
122	0x3cfa1afc	0.030530445
123	0xbcf5fd2c	-0.030027948
124	0xb908a64e	-0.00013031924
125	0x3cf6ac28	0.030111387
126	0xbd1f0198	-0.03881988
127	0x3ce88895	0.02838544
128	0xbce48b69	-0.027898507
129	0x3d184d48	0.037183076
130	0xbbaa137c	-0.005190311
131	0x3c9f6def	0.0194616
132	0xbd467f68	-0.048461348
133	0x3d2af9f7	0.04174229
134	0x3d2db0db	0.04240499
135	0xbd4d9561	-0.050191287
136	0x3d3180af	0.043335613
137	0xbd33b02c	-0.043869182
138	0x3bcc8e59	0.006242555
139	0xbd0d30a7	-0.034470227
140	0x3d17ba95	0.037043173
141	0xbb35ced7	-0.0027741694
142	0xbd4d2bd1	-0.050090615
143	0x3d4817c5	0.048850793
144	0xbd52e6c8	-0.05148962
145	0xbcbead13	-0.023275888
146	0x3d17a949	0.037026677
147	0xbcac3966	-0.021023463
148	0xbcfe4710	-0.031039745
149	0xbd21d35a	-0.0395082
150	0xbd68d99f	-0.056848165
151	0x3ce29de4	0.027663179
152	0xbbe93304	-0.0071166772
153	0xba8373e5	-0.0010029046
154	0x3be67904	0.007033469
155	0x3cc333bc	0.02382838
156	0xbd3454a4	-0.044026032
157	0x3baadf7b	0.005214629
158	0xbcc3173d	-0.023814792
159	0x3c711ffc	0.014717098
160	0xbd02ffe2	-0.03198231
161	0xbcbcf10a	-0.023064155
162	0x3d2401d2	0.0400408
163	0xbd0373e5	-0.032092948
164	0xbcbba9c0	-0.022908092
165	0xbc3c7e9b	-0.0115047945
166	0x3c820fa8	0.015876606
167	0x3d51a466	0.051182173
168	0x3bbd6b2c	0.005780598
169	0xbcd2eafe	-0.025746819
170	0x3d506ba4	0.050883904
171	0x3d161194	0.036637858
172	0xbcf498c0	-0.029857993
173	0x3d9dd2f1	0.077062495
174	0x3d06ae53	0.032881092
175	0x3d6d8034	0.057983592
176	0xbd112e59	-0.03544459
177	0x3b9674c6	0.004591557
178	0xbc0058c1	-0.007833661
179	0x3d71ed7b	0.05906437
180	0x3c487f3c	0.012237366
181	0xbd532483	-0.051548492
182	0xbd4ce7c4	-0.050025716
183	0x3cbdb486	0.02315737
184	0xbd52f2f6	-0.051501237
185	0xbcfd23a3	-0.030900782
186	0xbb2ca348	-0.002634244
187	0xbcf950e5	-0.030434081
188	0xbc037bc1	-0.008025111
189	0xbd01b8c3	-0.031670343
190	0x3c95c1ad	0.018280828
191	0x3d768c96	0.060192667
192	0xbc11fe40	-0.008910716
193	0x3d41a7f8	0.047279328
194	0x3c0098c6	0.007848924
195	0xbd89ddaf	-0.06731736
196	0x3b9b8d10	0.0047470406
197	0x3d423c71	0.047420923
198	0xbd3a5f93	-0.045501303
199	0x3c18451d	0.009293822
200	0x3ab77d0b	0.0013999058
201	0x3c134d95	0.008990665
202	0xbc30437b	-0.010758276
203	0xbd7fe2e3	-0.062472235
204	0xbd541582	-0.051778324
205	0xbc57fb04	-0.013182405
206	0xbd10480a	-0.03522495
207	0xbbd83ab1	-0.0065987934
208	0x3d475c0e	0.048671775
209	0x3ce502c3	0.027955418
210	0x3d2eecbe	0.042706244
211	0x3ced7693	0.028987205
212	0x3d02d61e	0.03194248
213	0x3d9d4adc	0.07680294
214	0xbbb3d2ee	-0.0054877913
215	0xbcd23b68	-0.025663093
216	0xbd19108b	-0.037369292
217	0x3da66549	0.08124787
218	0x3b422462	0.0029623737
219	0xbc1b293a	-0.009470278
220	0x3cdd3f3c	0.027007692
221	0x3c724b85	0.014788513
222	0x3ceffdcb	0.029295823
223	0x3d16cd84	0.03681709
224	0xbd2e576b	-0.042563837
225	0x3c9172a2	0.017754856
226	0x3c9171f8	0.01775454
227	0xbc9e4743	-0.01932109
228	0xbcf3374d	-0.029689455
229	0x3b7a1fab	0.0038165848
230	0xbda0aa05	-0.07844929
231	0xbc18f6dd	-0.009336201
232	0xbc936ac6	-0.01799525
233	0xbb873880	-0.0041266084
234	0x3d38b866	0.04509773
235	0x3d4a5f05	0.049407024
236	0x3ca775e3	0.020441955
237	0x3cdda9c0	0.027058482
238	0xbd3bd9ab	-0.04586188
239	0x3cf8a828	0.03035362
240	0x3d1c4675	0.03815313
241	0xbd6a4773	-0.057197046
242	0xbd21e5c4	-0.039525762
243	0xbccb9c1f	-0.024854718
244	0x3d637e57	0.05554041
245	0x3ca32f7b	0.019920101
246	0xbccc08be	-0.024906512
247	0xbe143d94	-0.14476615
248	0xbdabee6d	-0.083950855
249	0x3b502ec8	0.0031766165
250	0x3c5c8f47	0.013461894
251	0xbdcd9401	-0.10037995
252	0xbbdb3dbb	-0.0066907085
253	0xbd09c3d7	-0.033634033
254	0xbb8114e0	-0.003939256
255	0x3d2c12db	0.04201017

body.2.body.0.bias f4 [32]
0	0xbc9ae287	-0.018906845
1	0xbb0f601a	-0.002187735
2	0x3cf055d0	0.029337794
3	0x3cd18c84	0.025579698
4	0x3d3ba114	0.045807913
5	0xbc80d5d9	-0.01572697
6	0x3c4867eb	0.012231807
7	0x3c0799c5	0.008276408
8	0x3d5cad5f	0.053876277
9	0xbd64d1a9	-0.05586401
10	0x3cb7558f	0.022379665
11	0x3afb5281	0.0019174368
12	0x3bb4f072	0.0055218274
13	0x3d9d3810	0.07676709
14	0x3cdddfd8	0.027084276
15	0xbc8131dc	-0.015770845
16	0x3d8bb256	0.06821124
17	0xbd1428be	-0.036171667
18	0xbb2554e6	-0.0025227605
19	0x3d74c4b1	0.059757892
20	0x3b3e459a	0.0029033185
21	0x3c112486	0.0088588055
22	0x3c9cfd15	0.019163648
23	0x3d887621	0.06663156
24	0x3c196d56	0.009364447
25	0x3c6889ba	0.014192993
26	0x3d6116b5	0.054953296
27	0x3a57656f	0.0008216714
28	0x3c35205e	0.01105508
29	0xbcb2559a	-0.021769334
30	0xbbae4b12	-0.0053190077
31	0x3ca10222	0.019654337
